…
2023-05-28 19:32:07,671 - CRITICAL - len(trainset): 23786
2023-05-28 19:32:07,671 - CRITICAL - len(testset): 7928
2023-05-28 19:32:07,671 - CRITICAL - len(predictset): 7930
2023-05-28 19:32:07,671 - INFO - len(trainloader): 372
2023-05-28 19:32:07,671 - INFO - len(testloader): 124
2023-05-28 19:32:07,671 - INFO - len(predictloader): 124
2023-05-28 19:32:07,671 - CRITICAL - 
[FUNCTION]: Creating GlobalClassifierTrainer......
2023-05-28 19:32:07,671 - CRITICAL - Creating a model for type NN
2023-05-28 19:32:07,765 - INFO - Structure of Global Classifier: GlobalPreModel_NN(
  (dense): Sequential(
    (0): Linear(in_features=59, out_features=600, bias=True)
    (1): ReLU()
    (2): Linear(in_features=600, out_features=300, bias=True)
    (3): ReLU()
    (4): Linear(in_features=300, out_features=100, bias=True)
    (5): ReLU()
    (6): Linear(in_features=100, out_features=5, bias=True)
  )
)
2023-05-28 19:32:07,765 - CRITICAL - 
[FUNCTION]: Creating GeneratorTrainer......
2023-05-28 19:32:07,765 - CRITICAL - Creating a generator
2023-05-28 19:32:07,765 - INFO - Structure of Generator: Generator(
  (net): Sequential(
    (0): Linear(in_features=59, out_features=600, bias=True)
    (1): LayerNorm((600,), eps=1e-05, elementwise_affine=True)
    (2): ReLU()
    (3): Linear(in_features=600, out_features=200, bias=True)
    (4): LayerNorm((200,), eps=1e-05, elementwise_affine=True)
    (5): ReLU()
    (6): Linear(in_features=200, out_features=100, bias=True)
    (7): LayerNorm((100,), eps=1e-05, elementwise_affine=True)
    (8): ReLU()
    (9): Linear(in_features=100, out_features=29, bias=True)
    (10): Sigmoid()
  )
)
2023-05-28 19:32:07,765 - CRITICAL - 
[FUNCTION]: Training global classifier NN......
2023-05-28 19:32:10,811 - CRITICAL - In epoch 0, train accur is 0.42323216795921326, test accur is 0.4342835545539856.
2023-05-28 19:32:26,097 - CRITICAL - In epoch 12, train accur is 0.45694947242736816, test accur is 0.430751770734787.
2023-05-28 19:32:42,322 - CRITICAL - In epoch 24, train accur is 0.5554107427597046, test accur is 0.4093087613582611.
…
