…
2023-10-14 19:39:57,851 - CRITICAL - len(trainset): 23786
2023-10-14 19:39:57,851 - CRITICAL - len(testset): 7928
2023-10-14 19:39:57,851 - CRITICAL - len(predictset): 7930
2023-10-14 19:39:57,851 - INFO - len(trainloader): 372
2023-10-14 19:39:57,851 - INFO - len(testloader): 124
2023-10-14 19:39:57,851 - INFO - len(predictloader): 124
2023-10-14 19:39:57,851 - CRITICAL - 
[FUNCTION]: Creating GlobalClassifierTrainer......
2023-10-14 19:39:57,851 - CRITICAL - Creating a model for type NN
2023-10-14 19:39:57,867 - INFO - Structure of Global Classifier: GlobalPreModel_NN(
  (dense): Sequential(
    (0): Linear(in_features=59, out_features=600, bias=True)
    (1): ReLU()
    (2): Linear(in_features=600, out_features=300, bias=True)
    (3): ReLU()
    (4): Linear(in_features=300, out_features=100, bias=True)
    (5): ReLU()
    (6): Linear(in_features=100, out_features=5, bias=True)
  )
)
2023-10-14 19:39:57,867 - CRITICAL - 
[FUNCTION]: Creating GeneratorTrainer......
2023-10-14 19:39:57,867 - CRITICAL - Creating a generator
2023-10-14 19:39:57,872 - INFO - Structure of Generator: Generator(
  (net): Sequential(
    (0): Linear(in_features=59, out_features=600, bias=True)
    (1): LayerNorm((600,), eps=1e-05, elementwise_affine=True)
    (2): ReLU()
    (3): Linear(in_features=600, out_features=200, bias=True)
    (4): LayerNorm((200,), eps=1e-05, elementwise_affine=True)
    (5): ReLU()
    (6): Linear(in_features=200, out_features=100, bias=True)
    (7): LayerNorm((100,), eps=1e-05, elementwise_affine=True)
    (8): ReLU()
    (9): Linear(in_features=100, out_features=29, bias=True)
    (10): Sigmoid()
  )
)
2023-10-14 19:39:57,872 - CRITICAL - 
[FUNCTION]: Training global classifier NN......
2023-10-14 19:39:59,597 - CRITICAL - In epoch 0, train accur is 0.42323216795921326, test accur is 0.4342835545539856.
2023-10-14 19:40:23,457 - CRITICAL - In epoch 12, train accur is 0.4587993025779724, test accur is 0.4318869709968567.
2023-10-14 19:40:47,664 - CRITICAL - In epoch 24, train accur is 0.5511645674705505, test accur is 0.4157416820526123.
…
