…
2022-09-29 21:32:40,031 - CRITICAL - len(testset): 7928
2022-09-29 21:32:40,032 - CRITICAL - len(predictset): 7930
2022-09-29 21:32:40,033 - INFO - len(trainloader): 372
2022-09-29 21:32:40,033 - INFO - len(testloader): 124
2022-09-29 21:32:40,033 - INFO - len(predictloader): 124
2022-09-29 21:32:40,033 - CRITICAL - 
[FUNCTION]: Creating GlobalClassifierTrainer......
2022-09-29 21:32:40,033 - CRITICAL - Creating a model for type RF
2022-09-29 21:32:40,033 - CRITICAL - Creating RandomForest, with n_estimators=100, max_depth=3
2022-09-29 21:32:40,732 - INFO - Structure of Fake Random Forest: FakeRandomForest(
  (dense): Sequential(
    (0): Linear(in_features=59, out_features=2000, bias=True)
    (1): Dropout(p=0.5, inplace=False)
    (2): ReLU()
    (3): Linear(in_features=2000, out_features=200, bias=True)
    (4): Dropout(p=0.5, inplace=False)
    (5): ReLU()
    (6): Linear(in_features=200, out_features=5, bias=True)
    (7): Sigmoid()
  )
)
2022-09-29 21:32:40,733 - INFO - Structure of Global Classifier: RandomForestClassifier(max_depth=3, random_state=0)
2022-09-29 21:32:40,734 - CRITICAL - 
[FUNCTION]: Creating GeneratorTrainer......
2022-09-29 21:32:40,734 - CRITICAL - Creating a generator
2022-09-29 21:32:40,739 - INFO - Structure of Generator: Generator(
  (net): Sequential(
    (0): Linear(in_features=59, out_features=600, bias=True)
    (1): LayerNorm((600,), eps=1e-05, elementwise_affine=True)
    (2): ReLU()
    (3): Linear(in_features=600, out_features=200, bias=True)
    (4): LayerNorm((200,), eps=1e-05, elementwise_affine=True)
    (5): ReLU()
    (6): Linear(in_features=200, out_features=100, bias=True)
    (7): LayerNorm((100,), eps=1e-05, elementwise_affine=True)
    (8): ReLU()
    (9): Linear(in_features=100, out_features=29, bias=True)
    (10): Sigmoid()
  )
)
2022-09-29 21:32:40,739 - CRITICAL - 
[FUNCTION]: Training global classifier RF......
2022-09-29 21:32:42,845 - CRITICAL - After training Random Forest, train accur is 0.42075170268225004, test accur is 0.42318365287588294.
2022-09-29 21:32:45,660 - CRITICAL - Creating FakeDataset (torch.Size([396440, 59]), torch.Size([396440, 5]))
…
