…
2022-09-22 13:31:03,970 - CRITICAL - len(testset): 11701
2022-09-22 13:31:03,970 - CRITICAL - len(predictset): 11703
2022-09-22 13:31:03,971 - INFO - len(trainloader): 549
2022-09-22 13:31:03,971 - INFO - len(testloader): 183
2022-09-22 13:31:03,971 - INFO - len(predictloader): 183
2022-09-22 13:31:03,971 - CRITICAL - 
[FUNCTION]: Creating GlobalClassifierTrainer......
2022-09-22 13:31:03,971 - CRITICAL - Creating a model for type RF
2022-09-22 13:31:03,971 - CRITICAL - Creating RandomForest, with n_estimators=100, max_depth=3
2022-09-22 13:31:04,669 - INFO - Structure of Fake Random Forest: FakeRandomForest(
  (dense): Sequential(
    (0): Linear(in_features=48, out_features=2000, bias=True)
    (1): Dropout(p=0.5, inplace=False)
    (2): ReLU()
    (3): Linear(in_features=2000, out_features=200, bias=True)
    (4): Dropout(p=0.5, inplace=False)
    (5): ReLU()
    (6): Linear(in_features=200, out_features=11, bias=True)
    (7): Sigmoid()
  )
)
2022-09-22 13:31:04,670 - INFO - Structure of Global Classifier: RandomForestClassifier(max_depth=3, random_state=0)
2022-09-22 13:31:04,671 - CRITICAL - 
[FUNCTION]: Creating GeneratorTrainer......
2022-09-22 13:31:04,671 - CRITICAL - Creating a generator
2022-09-22 13:31:04,676 - INFO - Structure of Generator: Generator(
  (net): Sequential(
    (0): Linear(in_features=48, out_features=600, bias=True)
    (1): LayerNorm((600,), eps=1e-05, elementwise_affine=True)
    (2): ReLU()
    (3): Linear(in_features=600, out_features=200, bias=True)
    (4): LayerNorm((200,), eps=1e-05, elementwise_affine=True)
    (5): ReLU()
    (6): Linear(in_features=200, out_features=100, bias=True)
    (7): LayerNorm((100,), eps=1e-05, elementwise_affine=True)
    (8): ReLU()
    (9): Linear(in_features=100, out_features=20, bias=True)
    (10): Sigmoid()
  )
)
2022-09-22 13:31:04,677 - CRITICAL - 
[FUNCTION]: Training global classifier RF......
2022-09-22 13:31:09,641 - CRITICAL - After training Random Forest, train accur is 0.7984617575843896, test accur is 0.7947184001367404.
2022-09-22 13:31:15,250 - CRITICAL - Creating FakeDataset (torch.Size([585090, 48]), torch.Size([585090, 11]))
…
