…
2022-09-22 14:33:36,264 - CRITICAL - len(trainset): 35105
2022-09-22 14:33:36,265 - CRITICAL - len(testset): 11701
2022-09-22 14:33:36,265 - CRITICAL - len(predictset): 11703
2022-09-22 14:33:36,266 - INFO - len(trainloader): 549
2022-09-22 14:33:36,266 - INFO - len(testloader): 183
2022-09-22 14:33:36,266 - INFO - len(predictloader): 183
2022-09-22 14:33:36,266 - CRITICAL - 
[FUNCTION]: Creating GlobalClassifierTrainer......
2022-09-22 14:33:36,266 - CRITICAL - Creating a model for type NN
2022-09-22 14:33:36,964 - INFO - Structure of Global Classifier: GlobalPreModel_NN(
  (dense): Sequential(
    (0): Linear(in_features=48, out_features=600, bias=True)
    (1): Dropout(p=0.5, inplace=False)
    (2): ReLU()
    (3): Linear(in_features=600, out_features=300, bias=True)
    (4): Dropout(p=0.5, inplace=False)
    (5): ReLU()
    (6): Linear(in_features=300, out_features=100, bias=True)
    (7): Dropout(p=0.5, inplace=False)
    (8): ReLU()
    (9): Linear(in_features=100, out_features=11, bias=True)
  )
)
2022-09-22 14:33:36,964 - CRITICAL - 
[FUNCTION]: Creating GeneratorTrainer......
2022-09-22 14:33:36,964 - CRITICAL - Creating a generator
2022-09-22 14:33:36,971 - INFO - Structure of Generator: Generator(
  (net): Sequential(
    (0): Linear(in_features=48, out_features=600, bias=True)
    (1): LayerNorm((600,), eps=1e-05, elementwise_affine=True)
    (2): ReLU()
    (3): Linear(in_features=600, out_features=200, bias=True)
    (4): LayerNorm((200,), eps=1e-05, elementwise_affine=True)
    (5): ReLU()
    (6): Linear(in_features=200, out_features=100, bias=True)
    (7): LayerNorm((100,), eps=1e-05, elementwise_affine=True)
    (8): ReLU()
    (9): Linear(in_features=100, out_features=20, bias=True)
    (10): Sigmoid()
  )
)
2022-09-22 14:33:36,971 - CRITICAL - 
[FUNCTION]: Training global classifier NN......
2022-09-22 14:33:40,748 - CRITICAL - In epoch 0, train accur is 0.4339267909526825, test accur is 0.7639517784118652.
2022-09-22 14:33:58,801 - CRITICAL - In epoch 12, train accur is 0.8196837902069092, test accur is 0.8972737193107605.
2022-09-22 14:34:16,892 - CRITICAL - In epoch 24, train accur is 0.8464891314506531, test accur is 0.9104350209236145.
…
