…
2022-09-07 19:44:51,924 - CRITICAL - len(trainset): 35105
2022-09-07 19:44:51,926 - CRITICAL - len(testset): 11701
2022-09-07 19:44:51,926 - CRITICAL - len(predictset): 11703
2022-09-07 19:44:51,936 - INFO - len(trainloader): 549
2022-09-07 19:44:51,936 - INFO - len(testloader): 183
2022-09-07 19:44:51,936 - INFO - len(predictloader): 183
2022-09-07 19:44:51,936 - CRITICAL - 
[FUNCTION]: Creating GlobalClassifierTrainer......
2022-09-07 19:44:51,941 - CRITICAL - Creating a model for type NN
2022-09-07 19:44:52,647 - INFO - Structure of Global Classifier: GlobalPreModel_NN(
  (dense): Sequential(
    (0): Linear(in_features=48, out_features=600, bias=True)
    (1): ReLU()
    (2): Linear(in_features=600, out_features=300, bias=True)
    (3): ReLU()
    (4): Linear(in_features=300, out_features=100, bias=True)
    (5): ReLU()
    (6): Linear(in_features=100, out_features=11, bias=True)
  )
)
2022-09-07 19:44:52,648 - CRITICAL - 
[FUNCTION]: Creating GeneratorTrainer......
2022-09-07 19:44:52,648 - CRITICAL - Creating a generator
2022-09-07 19:44:52,662 - INFO - Structure of Generator: Generator(
  (net): Sequential(
    (0): Linear(in_features=48, out_features=600, bias=True)
    (1): LayerNorm((600,), eps=1e-05, elementwise_affine=True)
    (2): ReLU()
    (3): Linear(in_features=600, out_features=200, bias=True)
    (4): LayerNorm((200,), eps=1e-05, elementwise_affine=True)
    (5): ReLU()
    (6): Linear(in_features=200, out_features=100, bias=True)
    (7): LayerNorm((100,), eps=1e-05, elementwise_affine=True)
    (8): ReLU()
    (9): Linear(in_features=100, out_features=20, bias=True)
    (10): Sigmoid()
  )
)
2022-09-07 19:44:52,662 - CRITICAL - 
[FUNCTION]: Training global classifier NN......
2022-09-07 19:44:56,032 - CRITICAL - In epoch 0, train accur is 0.5779518485069275, test accur is 0.8036065101623535.
2022-09-07 19:45:12,793 - CRITICAL - In epoch 12, train accur is 0.924113392829895, test accur is 0.9276130199432373.
2022-09-07 19:45:29,681 - CRITICAL - In epoch 24, train accur is 0.9596353769302368, test accur is 0.9743611216545105.
…
