…
2022-09-30 02:13:54,220 - CRITICAL - len(trainset): 23786
2022-09-30 02:13:54,222 - CRITICAL - len(testset): 7928
2022-09-30 02:13:54,223 - CRITICAL - len(predictset): 7930
2022-09-30 02:13:54,223 - INFO - len(trainloader): 372
2022-09-30 02:13:54,223 - INFO - len(testloader): 124
2022-09-30 02:13:54,223 - INFO - len(predictloader): 124
2022-09-30 02:13:54,223 - CRITICAL - 
[FUNCTION]: Creating GlobalClassifierTrainer......
2022-09-30 02:13:54,223 - CRITICAL - Creating a model for type NN
2022-09-30 02:13:54,996 - INFO - Structure of Global Classifier: GlobalPreModel_NN(
  (dense): Sequential(
    (0): Linear(in_features=59, out_features=600, bias=True)
    (1): Dropout(p=0.5, inplace=False)
    (2): ReLU()
    (3): Linear(in_features=600, out_features=300, bias=True)
    (4): Dropout(p=0.5, inplace=False)
    (5): ReLU()
    (6): Linear(in_features=300, out_features=100, bias=True)
    (7): Dropout(p=0.5, inplace=False)
    (8): ReLU()
    (9): Linear(in_features=100, out_features=5, bias=True)
  )
)
2022-09-30 02:13:54,996 - CRITICAL - 
[FUNCTION]: Creating GeneratorTrainer......
2022-09-30 02:13:54,996 - CRITICAL - Creating a generator
2022-09-30 02:13:55,005 - INFO - Structure of Generator: Generator(
  (net): Sequential(
    (0): Linear(in_features=59, out_features=600, bias=True)
    (1): LayerNorm((600,), eps=1e-05, elementwise_affine=True)
    (2): ReLU()
    (3): Linear(in_features=600, out_features=200, bias=True)
    (4): LayerNorm((200,), eps=1e-05, elementwise_affine=True)
    (5): ReLU()
    (6): Linear(in_features=200, out_features=100, bias=True)
    (7): LayerNorm((100,), eps=1e-05, elementwise_affine=True)
    (8): ReLU()
    (9): Linear(in_features=100, out_features=29, bias=True)
    (10): Sigmoid()
  )
)
2022-09-30 02:13:55,005 - CRITICAL - 
[FUNCTION]: Training global classifier NN......
2022-09-30 02:14:00,024 - CRITICAL - In epoch 0, train accur is 0.419952929019928, test accur is 0.4301210939884186.
2022-09-30 02:14:26,644 - CRITICAL - In epoch 12, train accur is 0.4342890977859497, test accur is 0.43819373846054077.
2022-09-30 02:14:54,279 - CRITICAL - In epoch 24, train accur is 0.4392920434474945, test accur is 0.4376891851425171.
…
