…
2022-09-29 20:12:15,753 - CRITICAL - len(testset): 7928
2022-09-29 20:12:15,754 - CRITICAL - len(predictset): 7930
2022-09-29 20:12:15,755 - INFO - len(trainloader): 372
2022-09-29 20:12:15,755 - INFO - len(testloader): 124
2022-09-29 20:12:15,755 - INFO - len(predictloader): 124
2022-09-29 20:12:15,755 - CRITICAL - 
[FUNCTION]: Creating GlobalClassifierTrainer......
2022-09-29 20:12:15,755 - CRITICAL - Creating a model for type RF
2022-09-29 20:12:15,755 - CRITICAL - Creating RandomForest, with n_estimators=100, max_depth=3
2022-09-29 20:12:16,524 - INFO - Structure of Fake Random Forest: FakeRandomForest(
  (dense): Sequential(
    (0): Linear(in_features=59, out_features=2000, bias=True)
    (1): Dropout(p=0.5, inplace=False)
    (2): ReLU()
    (3): Linear(in_features=2000, out_features=200, bias=True)
    (4): Dropout(p=0.5, inplace=False)
    (5): ReLU()
    (6): Linear(in_features=200, out_features=5, bias=True)
    (7): Sigmoid()
  )
)
2022-09-29 20:12:16,525 - INFO - Structure of Global Classifier: RandomForestClassifier(max_depth=3, random_state=0)
2022-09-29 20:12:16,526 - CRITICAL - 
[FUNCTION]: Creating GeneratorTrainer......
2022-09-29 20:12:16,526 - CRITICAL - Creating a generator
2022-09-29 20:12:16,535 - INFO - Structure of Generator: Generator(
  (net): Sequential(
    (0): Linear(in_features=59, out_features=600, bias=True)
    (1): LayerNorm((600,), eps=1e-05, elementwise_affine=True)
    (2): ReLU()
    (3): Linear(in_features=600, out_features=200, bias=True)
    (4): LayerNorm((200,), eps=1e-05, elementwise_affine=True)
    (5): ReLU()
    (6): Linear(in_features=200, out_features=100, bias=True)
    (7): LayerNorm((100,), eps=1e-05, elementwise_affine=True)
    (8): ReLU()
    (9): Linear(in_features=100, out_features=29, bias=True)
    (10): Sigmoid()
  )
)
2022-09-29 20:12:16,536 - CRITICAL - 
[FUNCTION]: Training global classifier RF......
2022-09-29 20:12:18,618 - CRITICAL - After training Random Forest, train accur is 0.42075170268225004, test accur is 0.42318365287588294.
2022-09-29 20:12:21,462 - CRITICAL - Creating FakeDataset (torch.Size([396440, 59]), torch.Size([396440, 5]))
…
