…
2022-09-22 12:59:53,353 - CRITICAL - len(trainset): 23786
2022-09-22 12:59:53,353 - CRITICAL - len(testset): 7928
2022-09-22 12:59:53,354 - CRITICAL - len(predictset): 7930
2022-09-22 12:59:53,354 - INFO - len(trainloader): 372
2022-09-22 12:59:53,354 - INFO - len(testloader): 124
2022-09-22 12:59:53,354 - INFO - len(predictloader): 124
2022-09-22 12:59:53,355 - CRITICAL - 
[FUNCTION]: Creating GlobalClassifierTrainer......
2022-09-22 12:59:53,355 - CRITICAL - Creating a model for type NN
2022-09-22 12:59:54,055 - INFO - Structure of Global Classifier: GlobalPreModel_NN(
  (dense): Sequential(
    (0): Linear(in_features=59, out_features=600, bias=True)
    (1): ReLU()
    (2): Linear(in_features=600, out_features=300, bias=True)
    (3): ReLU()
    (4): Linear(in_features=300, out_features=100, bias=True)
    (5): ReLU()
    (6): Linear(in_features=100, out_features=5, bias=True)
  )
)
2022-09-22 12:59:54,055 - CRITICAL - 
[FUNCTION]: Creating GeneratorTrainer......
2022-09-22 12:59:54,055 - CRITICAL - Creating a generator
2022-09-22 12:59:54,060 - INFO - Structure of Generator: Generator(
  (net): Sequential(
    (0): Linear(in_features=59, out_features=600, bias=True)
    (1): LayerNorm((600,), eps=1e-05, elementwise_affine=True)
    (2): ReLU()
    (3): Linear(in_features=600, out_features=200, bias=True)
    (4): LayerNorm((200,), eps=1e-05, elementwise_affine=True)
    (5): ReLU()
    (6): Linear(in_features=200, out_features=100, bias=True)
    (7): LayerNorm((100,), eps=1e-05, elementwise_affine=True)
    (8): ReLU()
    (9): Linear(in_features=100, out_features=29, bias=True)
    (10): Sigmoid()
  )
)
2022-09-22 12:59:54,061 - CRITICAL - 
[FUNCTION]: Training global classifier NN......
2022-09-22 12:59:57,019 - CRITICAL - In epoch 0, train accur is 0.42323216795921326, test accur is 0.4342835545539856.
2022-09-22 13:00:08,937 - CRITICAL - In epoch 12, train accur is 0.45694947242736816, test accur is 0.430751770734787.
2022-09-22 13:00:20,770 - CRITICAL - In epoch 24, train accur is 0.5554107427597046, test accur is 0.4093087613582611.
…
