…
2022-09-22 14:39:12,989 - CRITICAL - len(trainset): 23786
2022-09-22 14:39:12,989 - CRITICAL - len(testset): 7928
2022-09-22 14:39:12,990 - CRITICAL - len(predictset): 7930
2022-09-22 14:39:12,990 - INFO - len(trainloader): 372
2022-09-22 14:39:12,990 - INFO - len(testloader): 124
2022-09-22 14:39:12,990 - INFO - len(predictloader): 124
2022-09-22 14:39:12,990 - CRITICAL - 
[FUNCTION]: Creating GlobalClassifierTrainer......
2022-09-22 14:39:12,990 - CRITICAL - Creating a model for type NN
2022-09-22 14:39:13,690 - INFO - Structure of Global Classifier: GlobalPreModel_NN(
  (dense): Sequential(
    (0): Linear(in_features=59, out_features=600, bias=True)
    (1): Dropout(p=0.5, inplace=False)
    (2): ReLU()
    (3): Linear(in_features=600, out_features=300, bias=True)
    (4): Dropout(p=0.5, inplace=False)
    (5): ReLU()
    (6): Linear(in_features=300, out_features=100, bias=True)
    (7): Dropout(p=0.5, inplace=False)
    (8): ReLU()
    (9): Linear(in_features=100, out_features=5, bias=True)
  )
)
2022-09-22 14:39:13,690 - CRITICAL - 
[FUNCTION]: Creating GeneratorTrainer......
2022-09-22 14:39:13,690 - CRITICAL - Creating a generator
2022-09-22 14:39:13,695 - INFO - Structure of Generator: Generator(
  (net): Sequential(
    (0): Linear(in_features=59, out_features=600, bias=True)
    (1): LayerNorm((600,), eps=1e-05, elementwise_affine=True)
    (2): ReLU()
    (3): Linear(in_features=600, out_features=200, bias=True)
    (4): LayerNorm((200,), eps=1e-05, elementwise_affine=True)
    (5): ReLU()
    (6): Linear(in_features=200, out_features=100, bias=True)
    (7): LayerNorm((100,), eps=1e-05, elementwise_affine=True)
    (8): ReLU()
    (9): Linear(in_features=100, out_features=29, bias=True)
    (10): Sigmoid()
  )
)
2022-09-22 14:39:13,695 - CRITICAL - 
[FUNCTION]: Training global classifier NN......
2022-09-22 14:39:16,634 - CRITICAL - In epoch 0, train accur is 0.419952929019928, test accur is 0.4301210939884186.
2022-09-22 14:39:28,641 - CRITICAL - In epoch 12, train accur is 0.4342890977859497, test accur is 0.43819373846054077.
2022-09-22 14:39:40,540 - CRITICAL - In epoch 24, train accur is 0.4392920434474945, test accur is 0.4376891851425171.
…
